…
  is_explicitly_specified: false
  is_hyperparam: null
  is_meta: null
  name: imgsize
  options: []
  order: -1
  type: <class 'int'>
  value: null
layers_block:
  computed:
  - 3
  - 4
  - 6
  - 3
  is_explicitly_specified: false
  is_hyperparam: null
  is_meta: null
  name: layers_block
  options: []
  order: 1
  type: <class 'list'>
  value: null
learning_rate:
  computed: null
  is_explicitly_specified: false
  is_hyperparam: null
  is_meta: null
  name: learning_rate
  options: []
  order: -1
  type: <class 'float'>
  value: null
model:
  computed: "ResNet(\n  (conv1): Sequential(\n    (0): Conv2d(3, 64, kernel_size=(7,\
    \ 7), stride=(2, 2), padding=(3, 3))\n    (1): BatchNorm2d(64, eps=1e-05, momentum=0.1,\
    \ affine=True, track_running_stats=True)\n    (2): ReLU()\n  )\n  (maxpool): MaxPool2d(kernel_size=3,\
    \ stride=2, padding=1, dilation=1, ceil_mode=False)\n  (layer0): Sequential(\n\
    \    (0): ResidualBlock(\n      (conv1): Sequential(\n        (0): Conv2d(64,\
    \ 64, kernel_size=(3, 3), stride=(1, 1), padding=(1, 1))\n        (1): BatchNorm2d(64,\
    \ eps=1e-05, momentum=0.1, affine=True, track_running_stats=True)\n        (2):\
    \ ReLU()\n      )\n      (conv2): Sequential(\n        (0): Conv2d(64, 64, kernel_size=(3,\
    \ 3), stride=(1, 1), padding=(1, 1))\n        (1): BatchNorm2d(64, eps=1e-05,\
    \ momentum=0.1, affine=True, track_running_stats=True)\n      )\n      (relu):\
    \ ReLU()\n    )\n    (1): ResidualBlock(\n      (conv1): Sequential(\n       \
    \ (0): Conv2d(64, 64, kernel_size=(3, 3), stride=(1, 1), padding=(1, 1))\n   \
    \     (1): BatchNorm2d(64, eps=1e-05, momentum=0.1, affine=True, track_running_stats=True)\n\
    \        (2): ReLU()\n      )\n      (conv2): Sequential(\n        (0): Conv2d(64,\
    \ 64, kernel_size=(3, 3), stride=(1, 1), padding=(1, 1))\n        (1): BatchNorm2d(64,\
    \ eps=1e-05, momentum=0.1, affine=True, track_running_stats=True)\n      )\n \
    \     (relu): ReLU()\n    )\n    (2): ResidualBlock(\n      (conv1): Sequential(\n\
    \        (0): Conv2d(64, 64, kernel_size=(3, 3), stride=(1, 1), padding=(1, 1))\n\
    \        (1): BatchNorm2d(64, eps=1e-05, momentum=0.1, affine=True, track_running_stats=True)\n\
    \        (2): ReLU()\n      )\n      (conv2): Sequential(\n        (0): Conv2d(64,\
    \ 64, kernel_size=(3, 3), stride=(1, 1), padding=(1, 1))\n        (1): BatchNorm2d(64,\
    \ eps=1e-05, momentum=0.1, affine=True, track_running_stats=True)\n      )\n \
    \     (relu): ReLU()\n    )\n  )\n  (layer1): Sequential(\n    (0): ResidualBlock(\n\
    \      (conv1): Sequential(\n        (0): Conv2d(64, 128, kernel_size=(3, 3),\
    \ stride=(2, 2), padding=(1, 1))\n        (1): BatchNorm2d(128, eps=1e-05, momentum=0.1,\
    \ affine=True, track_running_stats=True)\n        (2): ReLU()\n      )\n     \
    \ (conv2): Sequential(\n        (0): Conv2d(128, 128, kernel_size=(3, 3), stride=(1,\
    \ 1), padding=(1, 1))\n        (1): BatchNorm2d(128, eps=1e-05, momentum=0.1,\
    \ affine=True, track_running_stats=True)\n      )\n      (downsample): Sequential(\n\
    \        (0): Conv2d(64, 128, kernel_size=(1, 1), stride=(2, 2))\n        (1):\
    \ BatchNorm2d(128, eps=1e-05, momentum=0.1, affine=True, track_running_stats=True)\n\
    \      )\n      (relu): ReLU()\n    )\n    (1): ResidualBlock(\n      (conv1):\
    \ Sequential(\n        (0): Conv2d(128, 128, kernel_size=(3, 3), stride=(1, 1),\
    \ padding=(1, 1))\n        (1): BatchNorm2d(128, eps=1e-05, momentum=0.1, affine=True,\
    \ track_running_stats=True)\n        (2): ReLU()\n      )\n      (conv2): Sequential(\n\
    \        (0): Conv2d(128, 128, kernel_size=(3, 3), stride=(1, 1), padding=(1,\
    \ 1))\n        (1): BatchNorm2d(128, eps=1e-05, momentum=0.1, affine=True, track_running_stats=True)\n\
    \      )\n      (relu): ReLU()\n    )\n    (2): ResidualBlock(\n      (conv1):\
    \ Sequential(\n        (0): Conv2d(128, 128, kernel_size=(3, 3), stride=(1, 1),\
    \ padding=(1, 1))\n        (1): BatchNorm2d(128, eps=1e-05, momentum=0.1, affine=True,\
    \ track_running_stats=True)\n        (2): ReLU()\n      )\n      (conv2): Sequential(\n\
    \        (0): Conv2d(128, 128, kernel_size=(3, 3), stride=(1, 1), padding=(1,\
    \ 1))\n        (1): BatchNorm2d(128, eps=1e-05, momentum=0.1, affine=True, track_running_stats=True)\n\
    \      )\n      (relu): ReLU()\n    )\n    (3): ResidualBlock(\n      (conv1):\
    \ Sequential(\n        (0): Conv2d(128, 128, kernel_size=(3, 3), stride=(1, 1),\
    \ padding=(1, 1))\n        (1): BatchNorm2d(128, eps=1e-05, momentum=0.1, affine=True,\
    \ track_running_stats=True)\n        (2): ReLU()\n      )\n      (conv2): Sequential(\n\
    \        (0): Conv2d(128, 128, kernel_size=(3, 3), stride=(1, 1), padding=(1,\
    \ 1))\n        (1): BatchNorm2d(128, eps=1e-05, momentum=0.1, affine=True, track_running_stats=True)\n\
    \      )\n      (relu): ReLU()\n    )\n  )\n  (layer2): Sequential(\n    (0):\
    \ ResidualBlock(\n      (conv1): Sequential(\n        (0): Conv2d(128, 256, kernel_size=(3,\
    \ 3), stride=(2, 2), padding=(1, 1))\n        (1): BatchNorm2d(256, eps=1e-05,\
    \ momentum=0.1, affine=True, track_running_stats=True)\n        (2): ReLU()\n\
    \      )\n      (conv2): Sequential(\n        (0): Conv2d(256, 256, kernel_size=(3,\
    \ 3), stride=(1, 1), padding=(1, 1))\n        (1): BatchNorm2d(256, eps=1e-05,\
    \ momentum=0.1, affine=True, track_running_stats=True)\n      )\n      (downsample):\
    \ Sequential(\n        (0): Conv2d(128, 256, kernel_size=(1, 1), stride=(2, 2))\n\
    \        (1): BatchNorm2d(256, eps=1e-05, momentum=0.1, affine=True, track_running_stats=True)\n\
    \      )\n      (relu): ReLU()\n    )\n    (1): ResidualBlock(\n      (conv1):\
    \ Sequential(\n        (0): Conv2d(256, 256, kernel_size=(3, 3), stride=(1, 1),\
    \ padding=(1, 1))\n        (1): BatchNorm2d(256, eps=1e-05, momentum=0.1, affine=True,\
    \ track_running_stats=True)\n        (2): ReLU()\n      )\n      (conv2): Sequential(\n\
    \        (0): Conv2d(256, 256, k [[...]]"
  is_explicitly_specified: false
  is_hyperparam: null
  is_meta: null
  name: model
  options:
  - Resnet
  order: 0
  type: <class 'torch.nn.modules.module.Module'>
  value: null
num_classes:
  computed: null
  is_explicitly_specified: true
  is_hyperparam: null
  is_meta: null
  name: num_classes
  options: []
  order: -1
  type: <class 'int'>
  value: 10
num_epochs:
  computed: 20
…
